examples/neuralnet/neuralnet.pt (torch, 2463 bytes, 3 tensors)

weight f4 [20, 2]
0	0xbcf4cf77	-0.029884083
1	0x3cc774b4	0.02434764
2	0xbf3c15cd	-0.73470765
3	0xbcd6faa5	-0.026242564
4	0xbf4a5b03	-0.7904512
5	0x3d68d00d	0.056839038
6	0x3f7bc1ad	0.983424
7	0x3f6baf11	0.92064005
8	0x3d0a828d	0.03381591
9	0xbcccbe3d	-0.024993056
10	0xbd361f02	-0.044463165
11	0x3cfeead9	0.031117843
12	0x3d4cda39	0.0500128
13	0xbd095cbc	-0.033535704
14	0xbf1e0892	-0.6173183
15	0x3c5dc994	0.0135368295
16	0x3d1c1d9c	0.038114175
17	0xbcdbf265	-0.026848981
18	0xbfab56b3	-1.3385834
19	0x3f8407ea	1.0314915
20	0xbd101361	-0.03517473
21	0x3cd148e8	0.02554746
22	0xbd0e15ee	-0.034688883
23	0x3cdc90ee	0.026924577
24	0xbd28686e	-0.041115217
25	0x3cece4cf	0.028917698
26	0x3d34587a	0.04402969
27	0xbcefe462	-0.029283706
28	0xbe309429	-0.17244019
29	0xbf39d18a	-0.72585356
30	0x3e2b4ddb	0.16728918
31	0xbf36e566	-0.71443784
32	0xbd00e58e	-0.03146892
33	0x3ccc0752	0.024905834
34	0xbedb59f0	-0.42842054
35	0x3f9c253f	1.2198867
36	0xbd404a94	-0.046946123
37	0x3d03f116	0.03221234
38	0xbd005519	-0.031331155
39	0x3cbb95f8	0.02289866

bias f4 [20]
0	0x3f9ad975	1.2097613
1	0x3f315001	0.692627
2	0xbf834f33	-1.0258545
3	0x3f6dd6a1	0.9290562
4	0xbf873a19	-1.0564605
5	0x3f39dc46	0.72601736
6	0xbf25cf98	-0.6476989
7	0xbdd409b1	-0.10353411
8	0xbf605387	-0.8762745
9	0xbf721a48	-0.9457135
10	0x3f856696	1.0421932
11	0x3f7756fc	0.966171
12	0x3f4ba158	0.79543066
13	0xbf3f58f4	-0.74745107
14	0x3f29f8ca	0.66395247
15	0xbf9d5a35	-1.2293154
16	0x3f920ea9	1.1410724
17	0x3f11193f	0.5667915
18	0x3f308645	0.6895488
19	0x3f95bb4c	1.1697783

weight f4 [1, 20]
0	0x3ebca8f7	0.3684766
1	0xbfabd4ab	-1.3424276
2	0x3f437077	0.7634348
3	0xbee75ef2	-0.45189625
4	0xbeebc03d	-0.46045104
5	0x3f040da7	0.5158333
6	0xbee3d3b5	-0.44497457
7	0x3e967fc9	0.29394367
8	0xbefe6a3e	-0.4969043
9	0x3e92304e	0.2855248
10	0x3f006a93	0.5016262
11	0x3ebd1d39	0.36936358
12	0x3f0b0f59	0.54320294
13	0xbf1964ff	-0.5991973
14	0xbf97fb33	-1.1873535
15	0x3f8ac516	1.0841396
16	0x3eba2909	0.36359432
17	0xbef26586	-0.4734308
18	0x3f191d88	0.59810686
19	0x3ec7e198	0.39039302
