examples/net.pt (torch, 297911 bytes, 8 tensors)

weight f8 [100, 3]
000000 00 00 00 20 a8 aa d8 bf 00 00 00 a0 97 0e 84 bf
       -0.38541606068611145 -0.009793457575142384
000010 00 00 00 60 2c c7 d3 bf e7 cb 3b e2 b3 9d c9 3f
       -0.30903157591819763 0.2001252035766747
000020 b8 c4 6e 45 6e f8 e0 bf 78 59 00 3a 13 91 97 3f
       -0.5303260189158641 0.023014355101702105
000030 99 48 56 f0 2a 37 b4 3f 45 6a b9 8f cf a6 d2 3f
       0.078966792751347 0.29143132243703845
000040 f0 62 89 37 8f fd e1 3f 08 f5 af 82 66 5d c7 bf
       0.5622020802212244 -0.18253785496919073
000050 ec d1 86 1b 87 a5 cd 3f 8a 2f f5 47 00 0f e2 bf
       0.23161400646280528 -0.5643311887192664
000060 85 5d 28 40 7c 02 85 bf f3 25 bb db df 6b e1 3f
       -0.010258646686493797 0.5444182674047496
000070 37 8a 6f 1b 0c f9 db 3f a3 93 e1 23 d6 fc d1 bf
       0.43707564048068853 -0.2810569143678611
000080 19 37 1f 02 55 38 dd 3f 30 9b 18 0f 0c e4 e1 3f
       0.4565632363054291 0.5590877814146094
000090 5a b4 ef 11 dc cd e3 3f df 5a 96 7b dd bb cb 3f
       0.618879351646352 0.21667068991219815
0000a0 36 fd 40 82 21 d7 c4 3f 1d b1 cf a2 09 b1 d2 3f
       0.16281527385761202 0.29205552005329755
0000b0 8e 33 cf 52 90 80 d9 bf 72 c9 73 ef ef 3d e1 3f
       -0.398471909397636 0.5388106991579618
0000c0 00 00 00 20 03 d6 d2 bf 00 00 00 e0 01 f5 d9 bf
       -0.2943122684955597 -0.4055790603160858
0000d0 00 00 00 60 11 6c e0 bf 0e 80 55 f9 44 6f ab 3f
       -0.5131918787956238 0.053583293377187244
0000e0 6f e3 e0 b4 f6 92 cb 3f 39 ab ba a4 9b cb d6 bf
       0.21542247611958085 -0.35617724501451026
0000f0 bd 35 c7 c6 9b a5 dd 3f d7 fd 0d 0f 2d 05 d8 3f
       0.46323294078760197 0.3753159186380492
000100 94 40 5b 1e bd 3d cd bf a2 75 83 b3 07 28 e0 bf
       -0.2284466169571756 -0.5048864847300829
000110 2c 68 a6 db 1a 2a d0 3f 73 1c a4 d5 c0 cd ca 3f
       0.25256988001058533 0.20940409118358935
000120 25 69 db cb 9c 00 de 3f b8 23 1f bc 47 16 e7 3f
       0.46878738315503404 0.7214697527170904
000130 08 71 cc 9d 9d 65 c8 bf 71 73 04 a8 eb 39 e7 bf
       -0.19060106472978355 -0.7258203775014477
000140 1d 12 76 d6 7e 73 c2 3f cc 8f 77 54 92 6b 98 3f
       0.14414964172114333 0.023847853093584878
000150 fc cd f4 8d 95 85 e2 bf be 60 7c cb 2b 92 b3 bf
       -0.5788066647132264 -0.07644914358059204
000160 f3 52 8f e4 f4 eb ca 3f 75 ab c5 e6 39 dc d2 bf
       0.21032582435750377 -0.2946915391573193
000170 00 77 f1 57 55 52 d7 bf ae a3 e0 e3 a9 87 dd 3f
       -0.3644002302952316 0.4614052510610759
000180 5a 53 80 02 c0 78 b5 bf 90 be 0e 04 9d 1a c8 bf
       -0.08387374936166961 -0.1883121747791745
000190 ff 11 65 f4 6a ca cd 3f 7d a4 27 d3 69 b2 c4 bf
       0.23273980077114229 -0.1616947442082938
0001a0 24 ba cb 82 c0 df c6 3f 6a 04 7e d5 73 31 df 3f
       0.17870336901201356 0.48739333962300313
0001b0 00 00 00 60 b5 4b c8 3f 00 00 00 00 8f 11 9e 3f
       0.18981043994426727 0.029363855719566345
0001c0 00 00 00 80 53 00 e1 bf 9f 2f 25 9e ea 18 bd bf
       -0.53128981590271 -0.11366144524543963
0001d0 c4 88 92 f7 36 af c3 bf b9 84 32 ef da 1d d8 3f
       -0.15378462875839294 0.3768222175513745
0001e0 50 5b d9 56 75 58 d3 3f 28 4e b1 4d 8f 88 ca 3f
       0.30227406960823533 0.20729247373184134
0001f0 b2 6c dd 64 df e6 c7 3f 02 de b0 32 bc 19 e3 3f
       0.18673317360921754 0.596891497617378
000200 5e 68 38 43 17 03 ca bf 71 52 95 ac 56 f3 d9 bf
       -0.2032193258499459 -0.405477207697266
000210 92 69 54 85 b3 c9 d3 3f 48 dc 22 53 48 b9 df 3f
       0.30918586750490207 0.49568374747054067
000220 73 55 f6 9c b6 3d d6 3f 12 f3 92 82 54 65 d2 3f
       0.3475166828951252 0.2874346995484284
000230 ec cf 52 74 71 3f b5 bf 2a bf eb 63 76 39 d2 3f
       -0.08299931611946904 0.2847572303571605
000240 70 22 08 e7 75 c4 e0 bf 2e 73 3f 2b 2a 0f d5 3f
       -0.5239820015277257 0.32905058120177244
000250 86 75 74 98 2a 40 dd 3f 73 52 f2 a3 95 2c dd 3f
       0.45704140556502926 0.45584622393042834
000260 dc 28 0a 44 12 8b e0 bf 19 14 bd 1a 23 89 d0 3f
       -0.5169764832401387 0.2583701859587691
000270 00 00 00 40 b8 cc d2 bf 00 00 00 a0 4a a1 61 3f
       -0.29374510049819946 0.0021521050948649645
000280 00 00 00 40 9a 3e ca bf 9d 11 2b a4 a8 70 bd 3f
       -0.2050354778766632 0.11500028617871867
000290 40 af 37 28 10 21 e4 bf f8 56 f9 08 fa 3d a1 3f
       -0.6290360246179958 0.033675969691712326
0002a0 00 00 00 80 41 25 b1 bf 00 00 00 c0 af 23 d5 bf
       -0.06697472929954529 -0.3303031325340271
0002b0 00 00 00 40 26 ce da bf 13 34 f8 bb 80 7b e2 bf
       -0.41883236169815063 -0.5775760337143104
0002c0 9e ae 62 9a a4 5c 84 bf af 6e ae 0c dc 9c cf 3f
       -0.009942327462645392 0.24697447413642723
0002d0 87 8d 90 3b 20 2b dd 3f 6a ea 06 7b d0 6a e2 bf
       0.4557571965871933 -0.5755388644095778
0002e0 6a 1f 99 50 1b 08 d5 3f e2 b8 99 82 8f 29 c8 3f
       0.3286197936144989 0.18876832844711716
0002f0 8d 29 99 0f cf 7c d1 bf 21 ba 75 0b 75 e3 d0 3f
       -0.2732427265479139 0.2638828861153418
000300 00 00 00 60 71 35 e1 bf 00 00 00 00 53 1f df bf
       -0.5377737879753113 -0.48628687858581543
000310 00 00 00 00 25 f4 d3 bf c4 86 03 be d7 0d a5 3f
       -0.31177639961242676 0.041121236748734386
000320 63 26 b0 88 c0 bf 95 bf 62 61 31 d4 2c 42 d7 3f
       -0.02123928865697734 0.36341400835001114
000330 0a 45 71 e6 da 71 e1 bf 9c 8f ec fb 19 f5 dc bf
       -0.545148325045518 -0.4524598083682976
000340 e2 3d af 75 3e 1d b2 bf 8e e5 9d 9d 9c a6 c2 bf
       -0.0707587277713553 -0.14570958801395445
000350 a3 a0 12 bb 8c b2 d0 3f 59 04 0f f1 ef f2 d0 3f
       0.2608978106386621 0.2648277143562772
000360 18 bc 61 7b 9b 33 e4 3f 93 d3 f4 9f f1 d2 b9 3f
       0.6312997255134887 0.10087499766525658
000370 bb 4d f5 a4 47 56 9b bf 00 00 00 80 dd 9f c0 3f
       -0.026696319049120492 0.1298786997795105
000380 00 00 00 80 69 aa e1 bf 00 00 00 40 b9 9b c8 bf
       -0.5520522594451904 -0.19225230813026428
000390 00 00 00 e0 1d 01 d8 bf 00 00 00 60 a3 e4 b1 3f
       -0.37506815791130066 0.06989499181509018
0003a0 00 00 00 60 71 a1 db bf 3d 83 cc 4d 38 24 df 3f
       -0.43172869086265564 0.4865856895212806
0003b0 cf 03 66 5c 86 13 df bf 92 3a 5c f8 d1 c6 c7 bf
       -0.48556670211115444 -0.18575501086202856
0003c0 00 00 00 20 d5 36 d3 bf 00 00 00 20 cf 6d af bf
       -0.300221711397171 -0.0613846518099308
0003d0 00 00 00 80 4c 0d 7c bf 3c 7c 45 2e 3e d5 c7 3f
       -0.006848620250821114 0.18619515666338937
0003e0 7b 98 e0 30 18 d2 e1 3f 4f e1 ec 5c df 2d 9a 3f
       0.5568963007579123 0.02556561474486446
0003f0 14 e5 c2 e6 03 50 c7 3f 5b 66 91 f3 80 83 b6 3f
       0.18212937133447638 0.08794408747180553
000400 f0 b0 57 d2 50 cd da bf fe 11 0c 1d 5d d6 e2 bf
       -0.4187814764143374 -0.5886674468352451
000410 7b 1a b5 78 b3 41 c0 bf 93 40 7c bc 73 f2 d3 3f
       -0.1270050372497343 0.31167310148976773
000420 83 25 18 48 60 3d c6 3f a0 49 f7 08 f2 3c b1 3f
       0.17374804992895684 0.06733620375533755
000430 61 47 68 9a 14 8c da 3f 00 12 7d 77 fa 36 c5 3f
       0.4147998340496227 0.16574030718233246
000440 8f 67 e7 de f0 d5 ad 3f 36 f6 85 1c 51 a6 db bf
       0.05827286454196134 -0.43202617440678937
000450 00 00 00 80 31 bf dd 3f 00 00 00 20 44 2f d6 bf
       0.4647945165634155 -0.3466348946094513
000460 00 00 00 00 c4 20 e2 bf 11 ff 22 4c 7c 39 d3 3f
       -0.5664997100830078 0.30038363871789026
000470 9d 81 f0 7f f7 1f b7 3f 44 e1 28 57 ce b1 e0 bf
       0.09033152459642797 -0.5217048361146586
000480 6a 44 d2 c7 2b ba d8 bf 50 f6 c0 12 44 b3 d0 3f
       -0.3863629771595415 0.2609415228979275
000490 3b d1 85 3a 11 ff cd 3f 00 00 00 c0 bd 3b 9e 3f
       0.2343465362315643 0.029524769634008408
0004a0 00 00 00 a0 52 97 a1 3f 00 00 00 00 a6 4e d5 bf
       0.03435762599110603 -0.33292531967163086
0004b0 5a c6 9a cc b3 61 b1 bf 59 22 b1 ac 30 71 cc 3f
       -0.06789706940869547 0.22220428878997003
0004c0 da 6b 5b 3a 22 31 e2 3f b7 fc 4a d5 f1 b5 d4 3f
       0.568497766474475 0.3236050208033236
0004d0 a3 7e aa 32 83 ca e0 bf 42 4f b0 06 89 ce dd 3f
       -0.5247207631654941 0.46573091176218295
0004e0 4e b5 40 6f 4d 94 d8 bf 47 1d 19 5b a1 76 c7 bf
       -0.38405166496780374 -0.18330780933522758
0004f0 fa ee 65 43 92 c1 d3 bf ee 7d 4d 1b 21 6d e2 bf
       -0.30868965703824325 -0.5758214505439676
000500 b9 56 cb e5 97 99 c4 bf 3f 8e e5 7a ba 5a d4 3f
       -0.160937297062153 0.3180376243746856
000510 27 30 d2 5f eb 3e 81 3f fd 16 49 cd 40 2e ae bf
       0.008420790540434165 -0.05894663339544868
000520 12 63 11 47 d4 25 b9 3f f2 c6 3a 7c 22 05 d0 3f
       0.09823347792679396 0.25031339771076866
000530 2e f9 13 7e 7c 01 c6 bf c6 22 bf 97 c1 ca cb 3f
       -0.17192035823968282 0.21712512883666174
000540 a1 72 5f 42 84 cd ca 3f f2 3f f2 6d 63 0d e3 3f
       0.20939687004910915 0.5953843257320826
000550 07 c7 67 7c 0c 42 cf 3f f3 aa c5 df ad b1 ae 3f
       0.24420314859849432 0.059949334684309984
000560 cf 83 04 91 be f1 b1 bf 69 b7 e9 5a 45 cc e1 3f
       -0.07009497681111941 0.5561854148524904
000570 01 ba 3c 26 11 73 e0 bf 95 49 e7 ad 23 df b2 3f
       -0.5140462633915491 0.07371733661356068
000580 3f 31 84 77 45 aa db 3f 85 00 2a e0 61 65 e3 3f
       0.4322675387527574 0.6061257723049641
000590 4f 21 66 19 2d 71 bb bf e3 2c 07 ff 6b e4 c5 bf
       -0.10719568128673028 -0.17103338196316206
0005a0 9d 3a 2f 9f 19 d8 bd 3f 76 e3 79 e7 80 a1 db bf
       0.11657867561664621 -0.4317323933133176
0005b0 66 24 b8 18 f0 ac 96 3f e4 2e e9 85 26 a6 d2 3f
       0.02214408064722697 0.2913910205577237
0005c0 d4 ee e7 70 95 1d d2 3f 50 c8 bf 77 e5 fb c1 bf
       0.28305564905143155 -0.1404997667992256
0005d0 61 65 c7 cb 18 33 a1 bf 5f 43 fa b4 45 38 e2 bf
       -0.033592963099816193 -0.5693691763609471
0005e0 d5 8c da a1 d8 d9 9e 3f 00 00 00 40 e7 7a cc bf
       0.03012789237858445 -0.22250071167945862
0005f0 00 00 00 80 54 15 5f bf 00 00 00 60 f6 a9 ca bf
       -0.0018971753306686878 -0.20831184089183807
000600 e7 70 ad ba 63 1c e2 bf e4 f7 27 56 b0 0e b5 3f
       -0.5659655233426094 0.0822553835241418
000610 b6 8f 87 b3 74 75 b3 3f f9 b8 89 94 a7 fa ab 3f
       0.07601098425908401 0.05464671791274784
000620 64 26 20 50 68 ab e0 bf 7b 9b 4d 41 53 8f d6 bf
       -0.5209237637474868 -0.35249787690411666
000630 00 00 00 60 e1 9c de bf 00 00 00 a0 29 cb e1 bf
       -0.478325217962265 -0.5560501217842102
000640 00 00 00 40 a4 42 d2 bf 00 00 00 a0 8f 46 c0 bf
       -0.28531748056411743 -0.12715335190296173
000650 00 00 00 c0 a6 9b d0 3f 00 00 00 60 36 19 ca bf
       0.2595002055168152 -0.20389442145824432
000660 1b 1d 8f 63 fb 2a e1 3f a8 e2 e2 18 61 ce c4 bf
       0.5364968246948679 -0.16254819598340942
000670 ac 56 48 32 e1 f5 a1 bf 00 00 00 60 7a 30 d4 bf
       -0.03507903803635534 -0.31545886397361755
000680 00 00 00 60 9c be c9 3f 00 00 00 80 08 55 cd bf
       0.2011294811964035 -0.22915750741958618
000690 54 b9 e6 4e e4 3b e1 bf f6 a1 c9 47 a3 24 a5 bf
       -0.5385610142746295 -0.04129514933885396
0006a0 87 75 78 2b 6d ff bd bf 5a f5 5a b1 ce c8 d6 3f
       -0.1171787482384926 0.3560063106522954
0006b0 c0 af b7 9a ea c5 be bf 48 c9 30 9e 9c a7 d4 3f
       -0.12020746495517098 0.32273021171854
0006c0 0a e2 31 0a e5 87 dd bf a0 27 a3 34 73 ba d7 3f
       -0.4614193534430632 0.3707550062214242
0006d0 ff ae 4e 57 4d 42 cb 3f 4e ac 01 4d 97 88 d8 3f
       0.212960879927202 0.38333685417336916
0006e0 67 63 26 93 70 16 d3 3f 00 70 74 d3 94 56 c5 bf
       0.29824461336243363 -0.16670475315993372
0006f0 96 e3 4f 43 8f db cf bf 1f 1e cf 8a 13 95 88 3f
       -0.24888792788240427 0.012003090547195559
000700 aa 2b 55 7c fc fb cc 3f f5 89 12 de 32 c5 da 3f
       0.22644001074726577 0.41828605353126075
000710 71 91 9a d1 53 05 d7 3f ea fd 9b 89 01 c3 c1 3f
       0.3597001597320491 0.13876361102300844
000720 21 d2 5b b3 b3 b3 da bf 58 a2 a1 67 29 99 68 3f
       -0.4172181369351922 0.00300272070767375
000730 b5 93 b1 c1 9a ae e1 3f d6 a4 7c 0d ad a1 cd bf
       0.5525640280799197 -0.23149645956553994
000740 1f 9c af 0d e6 cb d5 3f 39 b2 bd 56 9c da 61 3f
       0.34056998573800173 0.002179437016755406
000750 8c 6e 11 5d 81 7c d8 bf d5 5f 16 fe d9 41 c5 bf
       -0.38259920204812015 -0.1660721293126232
000760 ed d0 2c 56 ca 44 d3 3f 5a 29 74 4f 84 67 e2 bf
       0.30107363143476 -0.575136332686536
000770 e8 7f 4d 35 12 03 e6 3f d2 68 bb f4 7d 0a be bf
       0.6878748932904246 -0.11734759545234688
000780 30 ed 75 14 51 57 84 3f c0 0a bd db ef 03 df 3f
       0.00993216842356634 0.4846152921565299
000790 5b b7 61 f2 0a b4 d6 bf 7b 1b 96 e1 a5 3c d6 bf
       -0.35473893804634365 -0.3474516585342184
0007a0 6c 44 53 d3 53 34 93 bf 4e 80 4e 73 2c bd d1 3f
       -0.018754300854940828 0.2771712423364122
0007b0 00 00 00 c0 24 ab af bf 00 00 00 00 56 ec d3 bf
       -0.0618525967001915 -0.31129980087280273
0007c0 00 00 00 00 b6 d1 c6 bf a9 e2 7b 87 d7 38 dd 3f
       -0.17827486991882324 0.45659435492374684
0007d0 ea af fb c3 61 86 dc 3f a8 32 02 51 cf fc d6 bf
       0.44570202006320747 -0.3591802874659984
0007e0 db b6 c7 b1 5a 1d e5 3f 43 fc 30 c3 ce 45 ca bf
       0.6598332855480423 -0.2052553608973274
0007f0 a3 6e f1 0b 96 45 d5 bf 26 de c5 3c bb 53 c4 bf
       -0.3323721996909887 -0.1588052794211176

bias f8 [100]
000000 00 00 00 e0 7c 41 b2 bf e3 b6 63 fb 62 e2 b4 bf
       -0.07131176441907883 -0.08157938611449427
000010 10 d2 5f 11 f3 d0 d2 bf 55 6b ea aa bc 1b cb bf
       -0.2940032643957986 -0.21178396554463555
000020 3b 85 f8 33 d2 5e d2 3f 58 03 7c 30 96 17 c2 bf
       0.2870374209906747 -0.14134480826762785
000030 13 7f 34 b6 98 17 d7 bf 0c 8e e4 f9 64 6a c0 3f
       -0.36081521790946275 0.1282469005756045
000040 00 00 00 c0 f0 21 b7 bf c7 4d 10 be cc f7 cf 3f
       -0.09036163985729218 0.24974974899724442
000050 22 ed 26 19 5c 11 c6 bf 9a af 1e 74 e9 0b 9e bf
       -0.17240477779510238 -0.029342315399545883
000060 ae b1 70 bf 79 75 d2 3f 1c 7f b2 39 28 cb ac bf
       0.28842014022191165 -0.05623746589958342
000070 77 a2 18 f1 8d 2e b7 bf b4 ee 58 bd cd 3d bf bf
       -0.09055411468637851 -0.12203679917086668
000080 7c 6e 56 92 f6 1f d3 3f c8 63 b9 3b a3 cc b2 3f
       0.29882587710174113 0.07343502243146738
000090 00 00 00 a0 49 4a d3 bf ae 22 d0 2f 58 0e a8 bf
       -0.30140915513038635 -0.046984439693976796
0000a0 08 29 01 f6 60 6e c8 bf 31 13 db 83 44 41 d8 3f
       -0.1908684922403341 0.37898362041987627
0000b0 fe 7f 78 e4 76 a6 91 bf 69 7d ac ef 43 84 e3 bf
       -0.017236573881859833 -0.6098956757668194
0000c0 f3 e1 79 1d de 1e c5 bf 2b 59 e0 7d b5 73 d2 3f
       -0.1650045055319108 0.2883123139630636
0000d0 00 00 00 e0 88 6d d7 bf 7a ea d9 7f 6e af b1 bf
       -0.3660604655742645 -0.06908312436454792
0000e0 00 00 00 00 18 c0 c4 bf a4 54 d5 3d ff 47 e0 3f
       -0.16211223602294922 0.5087887008363805
0000f0 72 6a ea 32 8d 6e d0 bf c7 ac c5 bb 78 cc d8 bf
       -0.25674753162608177 -0.3874799569809508
000100 00 00 00 60 c4 65 d3 bf 5c 29 67 9b 01 40 d1 3f
       -0.30308637022972107 0.26953163314887774
000110 68 9d 3d 51 87 b2 d6 3f 31 24 b3 06 25 25 a6 3f
       0.35464651998196084 0.04325214106354059
000120 b6 0c fc 91 78 19 b9 bf 00 00 00 00 c7 33 e1 bf
       -0.0980449062736167 -0.5375704765319824
000130 00 00 00 80 1a 16 d4 bf 3f 52 0f 60 59 c9 a8 bf
       -0.3138490915298462 -0.04841117189031196
000140 00 00 00 20 e3 c4 e0 bf 64 74 e5 cf 18 0c d7 3f
       -0.5240340828895569 0.36011333753942254
000150 3c ca bc 86 3b 5b d6 3f 68 59 b6 11 da 76 b3 bf
       0.34931839139895593 -0.07603228504590265
000160 90 da 3c 3a f6 c1 e1 bf ed 06 12 26 55 3b 9d 3f
       -0.554926980729606 0.028546648453363344
000170 00 00 00 00 3e de dc bf 3e 5c b7 a3 88 34 a9 bf
       -0.4510645866394043 -0.049228925690549805
000180 0f 12 b6 d9 b8 19 d7 bf 00 00 00 80 03 95 be bf
       -0.36094495068417215 -0.11946126818656921
000190 6e d5 ea 8c f8 7d d3 bf 33 77 9a 3d 08 7b ca 3f
       -0.3045636535783477 0.20687964447000126
0001a0 46 75 65 97 dc eb bf 3f 23 22 14 f9 7e f6 d4 3f
       0.12469271370124088 0.32754492115103256
0001b0 b2 f7 43 f0 e1 22 cb bf fb 55 c0 1a de 7f ba 3f
       -0.21200203162874015 0.10351360467060282
0001c0 50 b9 89 e4 f5 5b b0 3f 73 4d ff 76 ae 49 c2 bf
       0.06390320615330336 -0.14287358103193135
0001d0 3f 90 9a 06 00 5c d2 3f 0b 3f dd 48 33 dc a3 3f
       0.28686524052523404 0.038789370197831095
0001e0 36 a0 32 30 53 73 b9 bf d8 7f 65 17 25 b6 df 3f
       -0.09941596914961867 0.4954922417145986
0001f0 19 0f b8 3c d5 85 a1 3f 00 00 00 c0 61 77 bb bf
       0.03422418943594447 -0.1072903722524643
000200 86 ed 7e c2 bb a3 d9 bf 69 d2 a2 ad 13 c9 b5 3f
       -0.4006184958813822 0.08509943951760025
000210 00 00 00 40 75 92 ca bf 00 00 00 60 f5 93 d0 bf
       -0.20759454369544983 -0.25903066992759705
000220 d2 72 f4 e1 6c 26 d6 3f 00 00 00 c0 f0 0d df bf
       0.3460952955809208 -0.4852258563041687
000230 e4 96 b2 75 4d c9 bd 3f ea bf 3c 93 63 2b dc bf
       0.11635288356282164 -0.4401482522835055
000240 82 22 ac 7f 9d e9 b9 bf 2e 85 59 b6 fd c6 bd 3f
       -0.10122093550683967 0.1163176126660985
000250 27 5b 37 4c 24 0e c7 bf d5 c7 9b 56 d4 0a b2 3f
       -0.18011907311912376 0.07047774424043436
000260 50 20 de c2 b0 87 d0 3f c7 69 71 44 c9 cd db 3f
       0.25828188924834183 0.4344351929081793
000270 b3 96 39 92 8f 38 a0 bf 14 98 0f 41 ac 85 76 bf
       -0.03168152484867672 -0.005498574130774276
000280 8d cf 59 d0 c4 92 b6 3f 3b e7 1b de e5 62 da 3f
       0.08817701422395725 0.41228625002223723
000290 00 00 00 20 11 1f a7 bf 6b 62 2c d9 41 9f e0 3f
       -0.04515889659523964 0.5194405786197199
0002a0 32 4d 30 8d 95 eb bb 3f 2b a4 31 2d 71 65 da bf
       0.10906347939480979 -0.41244153417079826
0002b0 ce 22 2a d7 45 7a c7 3f 00 11 97 b9 c0 bc c0 bf
       0.18341897016605063 -0.1307602792932201
0002c0 19 38 b3 fc 26 1a d7 3f 00 00 00 40 03 80 d3 bf
       0.36097120931379006 -0.3046882748603821
0002d0 9a 40 62 f6 06 1c df 3f b7 09 a0 a7 2e 93 de 3f
       0.48608564434926793 0.4777332913364733
0002e0 d2 cc 6d 21 36 75 e0 3f f6 e6 0a 59 42 b0 d4 bf
       0.5143080380352336 -0.3232580060535918
0002f0 2d 80 ce 4f 83 20 c0 3f 27 d1 77 e4 57 ff d4 bf
       0.1259922160797954 -0.32808492003757056
000300 9c 10 cb 7e f2 ec c8 3f 15 e5 e2 e8 fb d3 d2 3f
       0.19473105612826636 0.29418847792438046
000310 76 00 f0 72 01 be d8 3f 96 67 eb 58 b2 2f e4 bf
       0.38659702514997407 -0.6308223473272274

weight f8 [300, 100]
000000 00 00 00 60 83 63 b6 bf 59 3a 8a a4 93 8d cd bf
       -0.08745595067739487 -0.2308830789010752
000010 5f ca 63 f7 93 d3 b0 3f 37 aa df 02 a6 a0 b8 3f
       0.06572842397489741 0.09620130129011605
000020 52 b8 6e 47 06 c0 69 3f be 2f 4a c1 45 f0 ba bf
       0.0031433222424857377 -0.10522876709927595
000030 de 1d 15 06 fe a0 b3 bf 6d 8d 6a 1f d7 14 aa 3f
       -0.07667529724596231 0.05094024904726777
000040 00 00 00 a0 f1 fa a6 bf 51 8b bc a7 35 37 b9 bf
       -0.04488329961895943 -0.09849868149880804
000050 df 42 5c 3d e5 b9 ba 3f b8 5c f3 45 fb e5 b5 3f
       0.10439903972679641 0.08554048974780215
000060 1d eb 02 67 15 89 9f 3f e1 f0 14 32 d7 03 bd bf
       0.03079636994582834 -0.11333985302639206
000070 ac 24 6d 98 26 e3 b3 3f d1 ab 32 dd 5a bc 90 bf
       0.07768479558321201 -0.016343517065859296
000080 3d b6 e0 0e ed b9 a1 bf 8c 91 90 a5 5d f3 a3 3f
       -0.034621627870688766 0.03896610876134607
000090 00 00 00 40 a9 92 a1 3f 44 de 55 8f 36 46 85 bf
       0.03432206064462662 -0.010387827157258951
0000a0 0a 63 b7 93 de b4 ac bf 11 d8 bd 58 ca 54 8b bf
       -0.05606742432764207 -0.013345318635156674
0000b0 84 10 8f 68 32 06 a3 3f d9 54 3e 6e b2 2f b3 bf
       0.037156653655558564 -0.07494654838076843
0000c0 87 e8 c0 02 31 18 b1 bf 6b ea e0 f9 c2 16 96 3f
       -0.06677538220620437 0.021571203709962832
0000d0 00 00 00 e0 50 c8 b5 3f b4 e6 51 00 8c 77 c2 bf
       0.08508782833814621 -0.1442732812463895
0000e0 00 00 00 60 97 94 b0 bf 04 e9 1b d0 83 00 a2 3f
       -0.06476732343435287 0.035160178331311825
0000f0 97 f5 ad ca 3f 79 a3 bf 74 fb c6 9f 0e 0c b4 bf
       -0.03803443287959423 -0.07830897713482249
000100 00 00 00 00 f2 90 b5 bf 9b ca ef c6 c5 13 a0 bf
       -0.08424293994903564 -0.031400852712882364
000110 75 5e d9 f2 29 81 a7 bf 99 46 26 f9 21 c9 b4 3f
       -0.04590731706110499 0.08119404156448197
000120 d8 92 71 8c e8 11 c2 bf 00 00 00 40 af f9 a5 bf
       -0.1411715207824702 -0.042920567095279694
000130 00 00 00 60 b6 7d 7c 3f 94 68 d3 71 89 1c b5 bf
       0.006955826189368963 -0.08246668843222188
000140 00 00 00 40 e5 d5 a7 bf 04 d1 fc b0 f2 3f a4 3f
       -0.04655376821756363 0.03955038462155083
000150 e6 54 b1 7f 3f eb 91 bf e7 05 8a 85 09 43 b0 3f
       -0.01749896256327057 0.06352290640099732
000160 c8 eb 77 64 d5 d4 9f bf e3 39 30 8a 1d 66 8c 3f
       -0.031085333115679764 0.013866644649195464
000170 00 00 00 00 9c bc b5 bf e3 b7 a6 a4 1c b9 98 bf
       -0.08490920066833496 -0.024143645810617797
000180 5e 78 eb 64 db c3 9c bf 00 00 00 00 5a f8 a1 3f
       -0.02809088519540414 0.03509789705276489
000190 c2 38 ad c2 c1 46 b0 bf 45 51 3a 1a 4d b0 61 bf
       -0.06357966425750575 -0.0021592622668526206
0001a0 9c 48 6a 5c a1 ec cb 3f 07 89 f8 df 73 53 b1 3f
       0.2181588841672849 0.06767963617361171
0001b0 73 80 e5 b1 5b 5d ad 3f 5d 22 8a 80 37 9e 9d 3f
       0.05735289141262081 0.028923861713823096
0001c0 52 77 e2 70 f8 b8 ad 3f c9 1f 3b e8 95 6f b5 3f
       0.05805183771120305 0.08373391074849147
0001d0 a3 c5 37 d1 f1 22 b5 bf 2a 14 cd 99 30 65 a7 3f
       -0.08256446225984475 0.045693892263934124
0001e0 3b 5b 37 3a 32 a4 d4 bf ce f1 d0 df a1 82 a5 3f
       -0.3225217407720497 0.04201227051860067
0001f0 3e 3b 96 83 ca 9d d0 bf 00 00 00 40 07 8d 9f bf
       -0.2596308026340245 -0.03081141784787178
000200 66 97 26 27 14 e3 c6 bf 85 2d a5 98 da 83 94 3f
       -0.17880489265115357 0.02003423268005868
000210 00 00 00 40 c1 03 a8 bf 00 00 00 e0 3a 81 b5 3f
       -0.04690364748239517 0.08400314301252365
000220 e0 c1 31 32 f3 62 93 3f 00 00 00 e0 cc 41 60 bf
       0.018932151735897906 -0.001984501024708152
000230 4a fb 09 19 f8 c0 c5 3f a4 91 4f 09 3b d2 92 3f
       0.1699514505634972 0.01838009113625251
000240 cc 52 05 fc e7 de 95 bf b7 50 87 99 de 23 a9 bf
       -0.021358132130745486 -0.04910178779724233
000250 7e 85 97 7e ff 35 b7 bf f7 a5 f6 9d 66 b3 a3 3f
       -0.09066769447919928 0.03847809484734548
000260 db 42 16 87 a3 94 92 bf 2f e7 19 a0 43 88 91 bf
       -0.01814513694768292 -0.017121369025040408
000270 2e 9f 2b c2 78 62 7e 3f e6 ef 45 90 3d bf ba 3f
       0.007418128693394794 0.10448059818548891
000280 cd 5d 85 e8 b7 de b0 3f e6 04 3c ad 97 09 9f bf
       0.06589841295987427 -0.030310029934303005
000290 00 00 00 60 34 9e a4 3f f1 44 c0 33 7c 55 b3 bf
       0.040269505232572556 -0.07552315009549539
0002a0 a9 87 9a 04 83 43 b6 3f dd 65 3f 5a 1d 18 b2 bf
       0.0869676481475198 -0.07068046048461647
0002b0 6e 6b 64 d2 cd ef a1 bf f3 38 54 4f bd 26 9c bf
       -0.03503268426194138 -0.02749152943311457
0002c0 fc f4 bd 7b 72 1c 80 3f 00 00 00 a0 99 21 0e 3f
       0.007866758729273553 5.74707992200274e-05
0002d0 2d 36 42 a3 8f 5f 82 bf b0 e0 68 80 8c f1 aa bf
       -0.008971330804594302 -0.05262412135601957
0002e0 81 00 53 8d 24 3d b3 bf 14 f3 5f d0 28 48 b6 3f
       -0.07515171480463502 0.08703856551433048
0002f0 d7 b1 9a 40 45 23 d0 bf ed 40 c1 b0 40 8c a5 bf
       -0.2521527415181288 -0.042085668159986024
000300 59 b3 3a 6d bc fd c0 bf 87 1a b6 e8 fa f4 b3 3f
       -0.1327434094759166 0.07795684987477546
000310 0d 33 b6 bf 4d 57 bf bf 3c 54 1b c9 cd 76 a0 3f
       -0.12242589884244755 0.032156401442684474
000320 00 00 00 60 8e e2 8a 3f 90 db 0d 27 cf 20 c3 3f
       0.013127434067428112 0.14943875700893416
000330 bc 28 5c f2 0f 5e 90 3f ef 71 bc 88 30 8e a0 bf
       0.015983819167595156 -0.032334820453090767
000340 99 2a 53 bb 5d 65 a0 3f 1a f1 bf 81 f1 e3 ba 3f
       0.032023362271123186 0.10504064004630145
000350 6c c7 f1 53 b5 9c bb bf 7b fe 68 81 5a 91 b1 3f
       -0.10785992907929448 0.06862416896273686
000360 00 00 00 40 8d 47 b4 bf 93 44 60 2c e7 41 b0 bf
       -0.07921679317951202 -0.06350560029410905
000370 ca 58 10 28 ef dd aa 3f 42 d0 61 5f 35 88 7e 3f
       0.05247447361050346 0.007454117285409069
000380 41 5b c1 74 cb b8 a1 bf c3 e1 7e e5 65 30 d1 3f
       -0.03461299705730037 0.26857898151095244
000390 bc fb e6 70 4e da 95 3f 3d 0c db e8 30 48 a8 3f
       0.021340585366256923 0.04742577402569068
0003a0 99 0f 09 4a b4 67 8a bf 6f f2 1f 84 0c ee 97 bf
       -0.012893112668400696 -0.023369021953828225
0003b0 00 00 00 40 4b 6d 9a bf 79 86 d6 8c df 8b a3 3f
       -0.025807548314332962 0.038176523153436066
0003c0 e7 cb 46 fb e7 b9 ba bf a7 2f ca e3 8d 39 aa 3f
       -0.10439920315438621 0.05122035413395958
0003d0 59 2c 3b 97 15 45 93 bf a1 f0 b6 44 ee 7d 81 bf
       -0.01881822333852443 -0.008540975067141967
0003e0 b4 ba ac 90 02 98 a9 bf c2 fe 7b d8 02 1e 40 bf
       -0.049987869415749314 -0.0004918588537918477
0003f0 00 00 00 60 ae 43 94 3f d4 c6 7d 8e 89 70 d8 3f
       0.019789433106780052 0.3818687335507154
000400 00 00 00 00 fc cb 98 3f c0 60 50 b1 1b a5 af bf
       0.024215638637542725 -0.06180655040242433
000410 ca 83 02 54 ec 02 b2 bf a8 55 32 d0 03 85 70 3f
       -0.07035710383435326 0.004033102889612485
000420 00 00 00 60 da e0 a2 3f 4f 03 15 05 e2 d0 a1 3f
       0.03687174245715141 0.0347967749789918
000430 1c 99 80 7e 64 5e b4 3f 7b 4a 2e 4f f1 fa b6 3f
       0.07956531608997292 0.08976658042073808
000440 8b 4b 50 95 6b 3c b9 3f 00 00 00 e0 68 40 a7 3f
       0.09857818980553483 0.04541328176856041
000450 00 00 00 40 23 1c b5 bf 6b cf fb 8b ff 5a 84 3f
       -0.08246059715747833 0.009939190349065282
000460 00 00 00 e0 6b 59 b9 bf 8e dc 73 da 08 c7 a1 3f
       -0.09902071207761765 0.03472163836152574
000470 a8 a6 ac 82 a7 0a b5 bf e6 aa 68 3b c2 60 9f bf
       -0.08219382229131134 -0.03064254272082225
000480 0b b6 6c cf 97 0d 8c bf 17 8a 2c f5 ab 5e a5 3f
       -0.013697801606748624 0.041737912825073824
000490 00 00 00 a0 08 78 b1 bf 52 ad f9 b9 73 34 77 3f
       -0.06823781877756119 0.0056652565541342615
0004a0 7d bc c4 2e cc f0 74 bf 00 00 00 60 5e 55 a8 bf
       -0.00511245497572965 -0.04752631112933159
0004b0 34 72 f9 05 f2 59 80 3f 12 ad ca 89 5d bb 95 3f
       0.00798405724270266 0.021222554717195648
0004c0 83 42 1b 57 ed 59 c7 bf 3e 64 5c 8d 26 b8 b2 3f
       -0.18243185761686584 0.07312241507715186
0004d0 64 df 0d 9c 5a 3a a5 bf bb 5d 8f 66 da 13 a2 bf
       -0.041460830258926135 -0.035307717341932464
0004e0 ee 39 37 dd 2e 27 9e 3f 41 99 61 b1 bf 84 b0 3f
       0.029446346523224358 0.06452558594319148
0004f0 16 4e 40 bf f9 d9 b1 3f 01 51 1d 7d d5 23 a7 bf
       0.06973229331224959 -0.04519526626850912
000500 72 5f 9c 11 83 64 d2 3f 66 9b 10 44 8b da 82 3f
       0.2873847648602271 0.009205902113604569
000510 55 c3 6a c9 dd 87 d1 3f 00 00 00 40 df 16 b4 3f
       0.27391762418397053 0.0784740000963211
000520 00 ff b1 4e f0 c3 9d 3f 39 bf 91 d2 af d1 a5 bf
       0.029067759326152576 -0.042615408376944726
000530 00 00 00 60 d6 ed 76 bf 00 00 00 40 7f 59 af 3f
       -0.005597913172096014 0.061229683458805084
000540 b2 97 72 3d 84 d9 b3 bf 00 00 00 60 86 e0 6a 3f
       -0.07753778934656344 0.003280889941379428
000550 cd 02 bd 83 7c 93 ab bf ed e0 a5 14 b8 04 b7 bf
       -0.05385960682042921 -0.08991575721836727
000560 72 5d 78 fb 0b b8 b4 bf 0b e1 08 a4 7e dd b5 3f
       -0.08093333138855544 0.08541099076035523
000570 94 0a b8 8f f8 22 a2 bf 2b a8 2d 92 8d 1d 6b 3f
       -0.03542305712109797 0.003309990411641391
000580 42 e6 43 65 51 52 a5 3f c7 d0 3f 23 51 85 99 3f
       0.0416436611285005 0.02492262628216293
000590 44 29 e5 d2 14 4a be 3f c8 f0 a8 a7 d7 20 93 bf
       0.11831789158637657 -0.018679971321248684
0005a0 a1 fd 1c 1b 7a d4 b9 bf 94 4e 94 b0 c7 e8 66 bf
       -0.1008983913607069 -0.002796545046871499
0005b0 00 00 00 40 a3 9a 74 3f 14 de 42 33 da ed b4 bf
       0.005030286498367786 -0.08175433875555199
0005c0 fe b6 18 fb 51 f7 ad 3f 1b a4 3d 0b a0 f9 a0 3f
       0.05852752866881693 0.03315448891846292
0005d0 53 56 53 41 45 9d 58 bf 6f a1 cf 12 e6 3b c0 bf
       -0.0015023399658295091 -0.1268279640055527
0005e0 e8 d7 7e 1f 57 6e b1 3f 00 00 00 40 fc d2 b5 bf
       0.0680899097340838 -0.08525063097476959
0005f0 91 7b b5 ff f6 f9 b2 3f ba 0b 82 d6 48 15 b3 3f
       0.07412666075604891 0.07454352604877004
000600 8f 67 2e db 5b c8 8c bf 42 1b d9 9f 28 45 bc bf
       -0.014054029108411274 -0.11043027784863305
000610 08 d7 28 8f 6a 73 d5 3f 7d 55 99 07 9c 4c 94 3f
       0.33516944866583787 0.019823492015651468
000620 8b 4a dd 90 c9 aa bc 3f 57 bb 2b 9d eb 29 83 3f
       0.1119810084031007 0.009357300504658701
000630 d5 e1 ee 8a 5d f1 a9 bf aa f4 15 a3 01 13 b2 3f
       -0.050669596871958746 0.0706025145681958
000640 00 00 00 a0 31 da b0 bf f9 0c b6 70 03 45 c8 3f
       -0.06582937389612198 0.18960612300370608
000650 9a e6 f2 4c 62 e9 98 3f 9a c2 34 ae ea fc 8c bf
       0.024327789255699096 -0.014154275361393066
000660 fd 42 c6 cf fa 31 b9 bf 6b 44 b4 86 57 11 a2 bf
       -0.09841888020151753 -0.03528855819070816
000670 e1 0e 67 f7 00 d9 be bf 3e 3b ad 86 db f1 88 bf
       -0.1204987148294623 -0.012180056617265952
000680 00 00 00 a0 39 c8 77 3f 9e c0 6c 34 15 89 80 3f
       0.005806183908134699 0.00807396475065075
000690 4b 3f 0f 48 9e 96 ba bf 71 db 38 35 5f a1 b3 3f
       -0.10386075267092314 0.07668108987205159
0006a0 12 71 c3 0a 91 cb 99 3f 54 9d 5c 86 60 a3 c7 3f
       0.025190607339809885 0.18467337189324928
0006b0 9e 32 5e 08 53 ff 62 3f da da a7 e1 9c 03 ae bf
       0.0023190137607741043 -0.05862131361566521
0006c0 65 84 8e d1 2c 82 a2 bf 93 47 c1 34 71 f5 b2 3f
       -0.036149406986859124 0.07405765092815235
0006d0 00 00 00 40 83 37 92 3f 28 73 4d 69 8b 72 b5 bf
       0.017789889127016068 -0.08377906151640657
0006e0 17 e7 a1 8f c0 13 bc bf 63 88 57 a3 2f f0 b9 bf
       -0.10967639452601606 -0.10132119882430994
0006f0 44 30 34 d7 6c 76 b2 3f 90 b6 36 4c 39 e9 a4 bf
       0.07211952451706433 -0.04084185653060246
000700 d4 a5 8a 53 00 84 a6 bf 0c aa 15 55 53 b4 88 bf
       -0.043975839803646416 -0.012062693628384323
000710 00 00 00 e0 ca ae ad bf ba 47 ef 36 0f b5 c3 3f
       -0.057974185794591904 0.1539629953609259
000720 00 00 00 40 01 58 b5 3f 8c b6 c3 23 28 74 b8 bf
       0.08337409794330597 -0.09552241204411355
000730 02 a8 f1 14 ce 7a b0 3f 41 54 8d d9 22 15 a4 bf
       0.06437385569884671 -0.03922375589051131
000740 00 00 00 60 b8 14 ab bf d6 9d 9b 38 d6 ce b6 3f
       -0.05289245769381523 0.0890935791209054
000750 a3 13 d6 94 a8 51 9e 3f 8a 77 5a 2f e3 26 6d 3f
       0.029608377537005414 0.0035585820395018274
000760 aa a1 dd 34 53 f6 d0 3f 00 00 00 40 ba 62 b0 bf
       0.26503448641463 -0.06400646269321442
000770 00 00 00 40 4b 6e 92 3f 37 89 ad 1d b8 60 b2 3f
       0.017998863011598587 0.0717883179145574
000780 00 00 00 a0 d5 50 9c 3f 5e 56 cb dc 01 dc b6 3f
       0.027652109041810036 0.08929454460607064
000790 f1 82 40 15 39 8f 86 bf 3d 87 57 73 53 eb 9f 3f
       -0.011015363656100759 0.031171134867583595
0007a0 88 3e bd 38 90 b3 b1 bf 6e 78 56 0f 57 d1 b6 3f
       -0.06914616952166786 0.08913177608926201
0007b0 00 00 00 a0 21 74 89 bf c1 3a cb fa 85 71 b9 bf
       -0.012428534217178822 -0.0993884789743147
0007c0 0b 60 e6 a0 03 1e b0 3f 00 00 00 60 62 4b aa 3f
       0.0629579799482373 0.05135638639330864
0007d0 ed 12 98 f2 0f 00 b4 3f 05 7b 8b 42 cd ef ab 3f
       0.07812595055299783 0.054563917515897876
0007e0 6d 10 b8 b9 da fb c3 bf 67 5d fe b7 b4 69 b7 3f
       -0.15612348621664598 0.09145669452697335
0007f0 05 06 15 e4 87 5b 57 3f 32 a0 56 68 21 78 b1 3f
       0.0014256312427537454 0.0682392959339502

bias f8 [300]
000000 34 38 dc c2 92 bf a8 3f df 13 d8 77 f2 b9 96 bf
       0.04833658817925404 -0.022193707050991548
000010 16 d9 e1 e2 37 5e a5 3f 6d 5a 4d a7 5f 0d 4c bf
       0.04173445362623533 -0.0008560864504073125
000020 8c e4 d1 e5 c2 71 a5 bf 02 36 36 2d 96 f9 b6 bf
       -0.04188355498713134 -0.08974588969996236
000030 7a 9a ce 71 df 62 89 3f 38 03 02 2e a9 ac ab bf
       0.01239561620770967 -0.05405167280787854
000040 de a4 bb 2c 6c bd 7b 3f cb a3 78 ff a6 00 ad bf
       0.006772444303103612 -0.05664560192628406
000050 44 64 7a 4d e4 a4 b1 bf 7a 0b eb 9b e1 4f b1 bf
       -0.06892229930453292 -0.06762514168353376
000060 77 2b 54 94 65 d2 90 bf f2 45 11 dc 86 6f a6 3f
       -0.016427600076933637 0.043819631923394456
000070 5c ec 72 ca e9 eb 84 3f d5 80 22 3e 6d f7 b5 3f
       0.010215593806029037 0.08580668227159845
000080 4a b1 aa 17 cb 21 bc 3f dd da 95 47 dc a7 96 3f
       0.10989064529230066 0.022124711865639014
000090 7e c3 19 30 d7 cd a9 3f b5 77 a0 0e af 57 99 3f
       0.050398563977871 0.02474854971671166
0000a0 e4 37 fb 0c ad 1b 9c 3f fa 81 fe 48 fb 3e ae 3f
       0.027449325482670775 0.059074261341496695
0000b0 fb 56 b6 c4 e1 99 97 bf 02 a6 72 ec 06 df ab bf
       -0.023047950393070043 -0.054435936320555114
0000c0 13 5f f3 f0 74 78 b6 3f fb ea 7e 31 9b d4 a2 bf
       0.0877755249269934 -0.03677830676266144
0000d0 1f eb a9 50 d7 d4 90 3f c6 ea b9 d5 77 1d 71 bf
       0.01643692426521703 -0.0041784935998474045
0000e0 cd 95 e9 4e 1b db 85 bf 91 c8 d8 91 5e af 99 3f
       -0.010671819062916388 0.025083043720038282
0000f0 5d 01 14 df fe 1d ba bf a1 7e 83 d4 a3 81 36 bf
       -0.10202019640201372 -0.00034342050322598057
000100 f3 b6 35 d9 a1 36 b4 bf 58 38 bb 20 3a 08 b3 3f
       -0.0789586215302867 0.07434428500275325
000110 f0 8b e9 8f 4e e7 bc bf 5b b7 53 67 99 10 95 3f
       -0.11290446294292145 0.0205711335483366
000120 43 cd c0 2b 8d 96 ab bf 4d f8 da 5e 00 92 a0 bf
       -0.05388299140067911 -0.032363902644178745
000130 7e c2 65 9a 60 57 97 bf de 61 6c 88 d5 05 b7 3f
       -0.02279425566070125 0.08993277149819032
000140 b3 4a e2 b6 2e 85 bb bf 05 e4 9b 6a 2d fd a0 3f
       -0.1075009533399605 0.03318159033182869
000150 62 2b 34 14 f4 c8 b4 bf 96 8d a8 70 0a 14 b1 bf
       -0.08119130604988592 -0.06671204805802797
000160 93 a8 d5 92 14 1a 95 bf 91 f5 38 66 f2 be b1 bf
       -0.020607301199028937 -0.06931986804644043
000170 a7 84 7a 05 c0 4e a6 bf da db e3 5e 1e 81 a2 bf
       -0.04356956545712736 -0.036141347010861316
000180 05 82 ba f9 c1 48 b5 3f 3f f8 9d df 9d 92 62 bf
       0.08314144465339986 -0.0022671779124144027
000190 4f c1 7f c8 44 b6 9d 3f b4 9c 52 4a 5a 61 b3 3f
       0.029015612351885264 0.0757042342616952
0001a0 f3 10 77 8d ad 1e 7e 3f 54 ed 2f c0 4c 18 b6 bf
       0.007353475513301999 -0.08630828563757592
0001b0 95 27 78 09 3a ad 5d bf ca 89 22 2d 85 0c 9c bf
       -0.001811319996593207 -0.02739151084882411
0001c0 f8 2d b8 d8 fd f6 95 3f 2b 48 19 6f dd 8f 70 bf
       0.021450010635858135 -0.004043450333101754
0001d0 01 de 8b 01 0f 51 ad 3f 9b db 85 4e b5 bd 99 bf
       0.05725905317188663 -0.02513774196401251
0001e0 44 c6 7d 85 6d 74 a9 3f 69 c7 19 a6 d4 75 a2 bf
       0.04971639875919867 -0.03605522658916877
0001f0 8c c9 b3 93 a5 7e a3 bf a8 38 3b 0e 67 e4 9c 3f
       -0.03807561328894157 0.028215036624538087
000200 c2 af e1 8f 39 11 6c 3f 1a bc 46 f6 cc ed 91 bf
       0.0034261821993392958 -0.01750869992400448
000210 6f e7 83 96 06 1d 97 3f 46 d2 69 52 c8 39 a8 bf
       0.02257166188881093 -0.04731584554693717
000220 77 d9 c8 a9 09 72 8b bf d8 11 df 1a df b6 b0 3f
       -0.013401103490747286 0.06529039770163736
000230 cf 68 7c 36 59 02 84 bf 1c 30 0a cc 79 36 9d bf
       -0.009770104384689308 -0.0285281210695275
000240 17 22 ce f1 76 71 b8 bf 35 9e 22 e1 97 7d 6c bf
       -0.09548133281180814 -0.0034778562922672903
000250 eb e0 af 56 2e ee 94 3f 08 8d 8f 28 88 32 b3 bf
       0.020439838448482666 -0.07498980512859899
000260 99 55 fd a7 c2 df 8e 3f ac a5 9d 53 09 39 b2 bf
       0.01507522654689346 -0.07118280688668815
000270 5c 6a b1 c8 ea 44 af 3f 25 fa 70 67 a0 39 a4 3f
       0.0610726709353073 0.03950215590201748
000280 58 44 bc c6 d3 fb b7 bf dd af 6c 67 0d 30 a3 bf
       -0.09368632890643036 -0.0374759854078943
000290 01 9b 57 38 7d 9c 8c 3f 42 4a d0 45 8b 53 8a bf
       0.013970354349067461 -0.01285466009907055
0002a0 9f 5b 98 00 ca 83 b3 3f 16 84 95 a6 c2 7d a8 3f
       0.07622969164400083 0.04783447535988487
0002b0 51 4c d7 aa b8 20 b9 bf 91 db 3f cb a0 90 a5 3f
       -0.09815553828166058 0.042119049845431474
0002c0 8d f3 63 53 98 56 b1 3f 71 52 68 65 1a ef ab 3f
       0.06772758518122952 0.054558586958738504
0002d0 55 de ba 72 43 c5 b4 bf c3 3f 3a b5 3d 14 8c bf
       -0.08113500166916172 -0.013710481732488128
0002e0 5a c4 1e e9 51 c7 aa 3f e7 e8 12 9c 64 47 b2 3f
       0.05230194063859335 0.07140187082669379
0002f0 81 52 a5 13 65 1e aa bf d2 b2 7f 1e 11 a7 85 bf
       -0.05101314415756964 -0.01057256101918239
000300 a5 51 32 b4 39 45 ac 3f ec 95 cc c1 cd bd 70 bf
       0.055215647932672675 -0.004087260950460952
000310 66 0b 86 e7 06 3a 90 bf db fa c1 6e b1 20 b6 3f
       -0.01584635532482128 0.08643635705991974
000320 77 75 ad e6 61 1e a6 bf d7 4b 87 01 cc a8 ad 3f
       -0.04320054951561308 0.05792844313295802
000330 c7 ee 8f 86 7f b0 a9 3f e8 52 5d a4 0f 17 92 bf
       0.05017469899754939 -0.01766609612180306
000340 5d e1 3e 1d c1 a7 8e bf ce 0d 3b 5d 98 23 8f bf
       -0.014968403534894642 -0.015204611153769056
000350 5c 9e d4 00 df 4d 81 3f 6a 81 99 23 41 b2 b5 bf
       0.008449308598371612 -0.08475119704372039
000360 39 7b 86 b5 83 e2 82 bf 2f 1b 04 4e 8c 0e b1 3f
       -0.009221104600155893 0.06662823586166831
000370 70 77 cd 35 0f 4d b4 3f 3f 29 f6 f8 bb 97 b4 3f
       0.07930083335437899 0.08044028118289236
000380 fa 6c 04 9b 69 f9 7f bf 51 59 80 f9 56 e6 9e 3f
       -0.0078062176910649265 0.030175551393847148
000390 f6 cb 9c 1e b7 c2 83 3f d7 11 9a 47 26 d7 86 3f
       0.0096487337319555 0.011152552662005029
0003a0 b2 2b 4f 0e b8 60 9a bf 6c 61 de cb 80 4d 87 bf
       -0.02575957858406825 -0.011378294202402293
0003b0 49 dc b0 d9 52 65 b1 bf 82 00 2d 36 6d fd a4 bf
       -0.06795232596128743 -0.04099599157643842
0003c0 65 74 69 5e 77 b3 91 3f 59 19 72 1c bc ad a3 3f
       0.017286172044226684 0.03843486640203037
0003d0 08 88 c0 50 f6 51 60 3f ef 7c b2 63 c1 15 70 3f
       0.001992207608069844 0.003926997592457611
0003e0 6d db d5 83 40 9f ad 3f ab 76 83 7f 5f d1 86 bf
       0.057855621426759686 -0.011141534880546663
0003f0 7f d7 20 83 0b 99 81 bf 0b 4b 21 ce 61 ae b8 bf
       -0.008592691363542347 -0.09641085894081074
000400 1b 4f 09 87 92 ef b0 3f 2e 13 d9 31 90 f4 a9 3f
       0.06615558430467809 0.05069399460311384
000410 6b 56 49 29 9f 51 b0 bf ad c5 cf e7 88 f1 5a 3f
       -0.06374544866533831 0.0016445004432593488
000420 6c 92 73 53 14 c9 a3 bf 56 83 25 fe 46 f4 92 3f
       -0.03864348906225676 0.018509969007371417
000430 43 37 30 86 80 6f 8f bf 4e 2c 5c 37 9a d9 8c 3f
       -0.015349392027953384 0.014086918653921778
000440 d7 d5 54 27 df f6 b2 3f d6 be 5b 79 bb c0 79 3f
       0.07407946310271228 0.00628731948903268
000450 1e b5 3e 73 45 28 b9 3f 54 bc b2 aa 5f 4b b3 3f
       0.09827074111554565 0.07536886136470972
000460 94 6c 2c e4 9e 07 a4 3f 94 a9 d6 73 6f cb b2 bf
       0.03912064109155114 -0.07341667726601592
000470 3f bd 90 9e 39 d0 b3 bf 89 eb 0c 46 47 fa 7d bf
       -0.07739601250863347 -0.00731876221908124
000480 af 0f dd bc 7e 62 a4 bf 08 38 15 d8 e1 0e ad 3f
       -0.03981395774329088 0.05675416720133347
000490 fc e5 23 81 81 03 8c 3f 6f f8 23 80 57 fd a7 3f
       0.013678561929270742 0.04685471953597264
0004a0 94 30 05 be 47 eb a9 bf e4 c4 d2 23 1d 06 a5 3f
       -0.05062317080100445 0.0410622698049197
0004b0 d3 ce f8 51 00 09 ba bf 70 72 ee 77 d5 37 96 bf
       -0.10169984818713411 -0.02169736427787189
0004c0 c4 ea ce 92 b7 72 99 bf e7 a8 19 f6 dc 63 95 bf
       -0.02485167344614571 -0.020888760109678464
0004d0 62 1d ea c8 e5 e0 b2 3f 9e 07 ed b8 9b c8 8a 3f
       0.07374416499270844 0.01307794244860699
0004e0 35 98 95 42 7a f1 b0 3f 5d 45 69 96 4f 44 ac bf
       0.06618465543360304 -0.05520867072176359
0004f0 9d 90 74 f3 e7 a4 bb bf f0 a2 23 39 66 c5 87 bf
       -0.10798501676305468 -0.011606978052854683
000500 81 e3 69 2e bd 3a 52 3f 18 8d e0 87 a7 a1 9c 3f
       0.0011126372789062868 0.02796041266277624
000510 0a 75 84 38 fc a0 a7 bf 85 3a 35 0e fd 48 b6 bf
       -0.046150094889734275 -0.08705121609566831
000520 91 2a 54 26 97 3a af bf 0e 32 5b 38 c4 c3 b1 bf
       -0.06099388449554966 -0.06939340949902137
000530 17 ad bc b6 91 81 ab 3f c6 a4 33 8c b3 69 b3 3f
       0.05372290950466601 0.07583162472623703
000540 57 35 7e 09 7b c7 60 bf 93 db 61 db 98 8e a5 3f
       -0.002048244768906453 0.042103554515896445
000550 8a d7 bc 64 fe 96 a7 3f d5 aa ba 91 02 07 90 3f
       0.046073865696981534 0.015651741165735828
000560 da cc cf 35 50 e6 b1 3f 6a a5 b8 92 bd c2 a0 bf
       0.06992055238497433 -0.03273575225859811
000570 57 91 bf a9 c6 f9 a4 3f 47 87 cd e2 02 55 a4 bf
       0.04096813985941832 -0.039711084543127266
000580 ef 53 af 1e a7 7a a0 bf 0b 01 6d 37 51 71 ac bf
       -0.03218576669284078 -0.05555204202255667
000590 55 b8 6e 9c 24 c9 b1 bf b6 d5 44 69 da ef a3 3f
       -0.06947544879105412 0.038939309454160506
0005a0 e9 a4 2e 57 94 72 78 bf 74 aa 62 52 11 81 b8 3f
       -0.005968646483702524 0.09571941624987251
0005b0 fa ae 75 8f 91 4e af 3f f7 b8 74 6c 82 85 ad bf
       0.061146305811091 -0.057659221400500664
0005c0 50 79 5a 61 70 90 bd 3f 84 e7 03 8e 95 87 ab 3f
       0.11548521401207279 0.05376880034050571
0005d0 ef 6b df 98 2b 72 9b bf 11 f2 2f 12 9c 52 b8 bf
       -0.026802712636577238 -0.09501052326226779
0005e0 e4 54 d9 bd 0a e3 b7 bf 15 dd 93 11 6f 54 b5 3f
       -0.09330813536628885 0.08331960848942217
0005f0 17 c7 d3 af 2b 84 ad bf cb 38 b2 3c d2 e0 ba bf
       -0.057649007046974336 -0.10499299985733328
000600 8a 84 42 04 3f 4c ac bf 6b a7 cd 0e 68 ea ad bf
       -0.055269212026595474 -0.05842900448517593
000610 90 65 7f a7 12 73 b0 bf c6 1d e6 53 fe 37 b0 bf
       -0.0642558726243776 -0.06335439251244343
000620 9a 0c 7d 8f 7a 9b a8 bf 93 9d c0 88 d8 11 a1 bf
       -0.048061208739931874 -0.03333927792874216
000630 4e f4 ec 34 16 96 b0 bf f9 66 21 c1 ef 44 9c 3f
       -0.06479014198426222 0.027606722033261175
000640 de e6 2f 2e d8 4a b2 3f ca 64 de ce 2f 77 a9 3f
       0.07145453574767255 0.04973744774106022
000650 52 4d 54 89 12 0e a4 3f 82 39 ba 97 28 a4 bb 3f
       0.039169863952475695 0.10797361091883853
000660 bc db 8c 22 cb 4b b7 bf d4 43 d8 99 72 36 b3 3f
       -0.0910002669669287 0.0750495553586597
000670 73 b6 97 a1 17 5c 9e bf 82 ee bb 4d 44 f2 a7 3f
       -0.029648179281073838 0.046770224083926074
000680 0b 09 97 2b d6 20 ae 3f 1a af 20 92 f3 fa b5 3f
       0.05884427339653272 0.08586046521730531
000690 b4 87 c5 66 77 33 af bf b1 88 12 69 24 57 b5 3f
       -0.060939532561647 0.08336093487972353
0006a0 49 4d c0 3b 1a b5 71 bf 0d 3a 30 5f b2 a7 aa 3f
       -0.004323103403311387 0.052060674781490325
0006b0 c8 bb 8d 30 e8 00 ae 3f 9b 50 db cc 15 27 b0 bf
       0.058600669791182336 -0.0630963921678948
0006c0 d0 b2 13 8e bd 57 b3 bf f4 61 c6 ba 10 64 ac bf
       -0.07555756300616712 -0.05545093803374704
0006d0 c9 99 f6 7f 7a d6 bb bf 96 61 7a c0 45 2e b6 bf
       -0.10874143241981139 -0.08664356183215313
0006e0 12 40 f3 5d 1e 21 bc bf aa 7a 6f e5 7d 82 a7 3f
       -0.10988035005289046 0.04591744828916451
0006f0 89 aa 37 9e c0 94 b0 3f 91 c5 3e b0 af db b2 3f
       0.06476978171091664 0.07366464665280704
000700 00 bd 32 ec a0 58 95 3f de 1f 09 d8 dd cd b7 bf
       0.02084590379371054 -0.09298502468402556
000710 13 60 a0 b2 40 0e b6 bf d9 ad 88 56 9d 54 a1 3f
       -0.08615497933385567 0.033848683179112
000720 e6 2b bd 03 df c5 ae 3f 74 d5 07 87 ca 71 bd bf
       0.0601033870758199 -0.11501756474156882
000730 68 27 33 5b 3e 07 73 3f 7a 80 79 e6 8b 0f a5 bf
       0.0046455798903453985 -0.04113423527155731
000740 52 56 1a 6a 2f 49 a5 bf a4 ef c3 5e 00 51 ad bf
       -0.04157398386193435 -0.05725861698917292
000750 cd 13 c3 06 8a d5 b8 bf 01 0e 52 b1 a0 84 b1 3f
       -0.09700834908569718 0.0684299881850663
000760 f5 5a 9d 78 b6 09 b3 3f c6 a0 87 5f e4 11 89 bf
       0.07436695522970267 -0.012241157689416925
000770 fa b1 54 8f 1f e1 ad 3f 89 99 13 7e a0 22 74 3f
       0.05835817932743122 0.004915835307861002
000780 2b 67 c6 ef 99 a1 b4 3f 95 10 1f 4f 99 07 9e bf
       0.08059084037668345 -0.029325862363990558
000790 81 49 ef 3d 89 c8 b4 3f aa ac 30 f9 43 e7 b3 3f
       0.08118493806913386 0.07774758180373689
0007a0 24 53 f6 25 7c 4d b4 bf 17 f1 d7 cf 59 8c 94 3f
       -0.07930732657252954 0.020066645918619033
0007b0 0d bd d5 9b ad 6a b6 bf 13 e0 ae 71 31 f1 94 3f
       -0.08756527952731492 0.020451328815141844
0007c0 36 64 3a fd 5f d8 87 bf e4 5b d6 ff de 62 80 3f
       -0.011643171229751653 0.0080010816407547
0007d0 c1 1a 06 09 0c 5f 91 3f 8e 23 b2 b7 02 06 b4 bf
       0.016964138079425654 -0.07821671471368871
0007e0 39 ba c2 d7 55 e3 7e 3f e9 ee 93 e2 08 89 9b 3f
       0.007541022609230335 0.026889933423247667
0007f0 fa 82 2f 63 f4 60 b1 3f 4b 8f 91 2a 72 bf b5 3f
       0.06788566037677049 0.08495248355171474
